nohup: ignoring input
save_dir ../Result/checkpoints/ESM-AP-Debug/1128_153953
Load pretrained tokenizer from ESM-1b ...
Load train dataset successfully
n_samples 3679405
len_valid 367940
Number of test data 10000
Number of pairs in train: 3311465, valid: 367940, and test: 10000
Freeze the embeeding layers and top 30 encoders of ESM-1b
ESM2Decoder(
  (esm_encoder): ESMForMaskedLM(
    (esm): ESMModel(
      (embeddings): ESMEmbeddings(
        (word_embeddings): Embedding(33, 1280, padding_idx=1)
        (position_embeddings): Embedding(1026, 1280, padding_idx=1)
        (token_type_embeddings): Embedding(1, 1280)
        (LayerNorm): LayerNorm((1280,), eps=1e-05, elementwise_affine=True)
        (dropout): Dropout(p=0, inplace=False)
      )
      (encoder): ESMEncoder(
        (layer): ModuleList(
          (0): ESMLayer(
            (attention): ESMAttention(
              (self): ESMSelfAttention(
                (query): Linear(in_features=1280, out_features=1280, bias=True)
                (key): Linear(in_features=1280, out_features=1280, bias=True)
                (value): Linear(in_features=1280, out_features=1280, bias=True)
                (dropout): Dropout(p=0.0, inplace=False)
              )
              (output): ESMSelfOutput(
                (dense): Linear(in_features=1280, out_features=1280, bias=True)
                (dropout): Dropout(p=0, inplace=False)
              )
              (LayerNorm): LayerNorm((1280,), eps=1e-05, elementwise_affine=True)
            )
            (intermediate): ESMIntermediate(
              (dense): Linear(in_features=1280, out_features=5120, bias=True)
            )
            (output): ESMOutput(
              (dense): Linear(in_features=5120, out_features=1280, bias=True)
              (dropout): Dropout(p=0, inplace=False)
            )
            (LayerNorm): LayerNorm((1280,), eps=1e-05, elementwise_affine=True)
          )
          (1): ESMLayer(
            (attention): ESMAttention(
              (self): ESMSelfAttention(
                (query): Linear(in_features=1280, out_features=1280, bias=True)
                (key): Linear(in_features=1280, out_features=1280, bias=True)
                (value): Linear(in_features=1280, out_features=1280, bias=True)
                (dropout): Dropout(p=0.0, inplace=False)
              )
              (output): ESMSelfOutput(
                (dense): Linear(in_features=1280, out_features=1280, bias=True)
                (dropout): Dropout(p=0, inplace=False)
              )
              (LayerNorm): LayerNorm((1280,), eps=1e-05, elementwise_affine=True)
            )
            (intermediate): ESMIntermediate(
              (dense): Linear(in_features=1280, out_features=5120, bias=True)
            )
            (output): ESMOutput(
              (dense): Linear(in_features=5120, out_features=1280, bias=True)
              (dropout): Dropout(p=0, inplace=False)
            )
            (LayerNorm): LayerNorm((1280,), eps=1e-05, elementwise_affine=True)
          )
          (2): ESMLayer(
            (attention): ESMAttention(
              (self): ESMSelfAttention(
                (query): Linear(in_features=1280, out_features=1280, bias=True)
                (key): Linear(in_features=1280, out_features=1280, bias=True)
                (value): Linear(in_features=1280, out_features=1280, bias=True)
                (dropout): Dropout(p=0.0, inplace=False)
              )
              (output): ESMSelfOutput(
                (dense): Linear(in_features=1280, out_features=1280, bias=True)
                (dropout): Dropout(p=0, inplace=False)
              )
              (LayerNorm): LayerNorm((1280,), eps=1e-05, elementwise_affine=True)
            )
            (intermediate): ESMIntermediate(
              (dense): Linear(in_features=1280, out_features=5120, bias=True)
            )
            (output): ESMOutput(
              (dense): Linear(in_features=5120, out_features=1280, bias=True)
              (dropout): Dropout(p=0, inplace=False)
            )
            (LayerNorm): LayerNorm((1280,), eps=1e-05, elementwise_affine=True)
          )
          (3): ESMLayer(
            (attention): ESMAttention(
              (self): ESMSelfAttention(
                (query): Linear(in_features=1280, out_features=1280, bias=True)
                (key): Linear(in_features=1280, out_features=1280, bias=True)
                (value): Linear(in_features=1280, out_features=1280, bias=True)
                (dropout): Dropout(p=0.0, inplace=False)
              )
              (output): ESMSelfOutput(
                (dense): Linear(in_features=1280, out_features=1280, bias=True)
                (dropout): Dropout(p=0, inplace=False)
              )
              (LayerNorm): LayerNorm((1280,), eps=1e-05, elementwise_affine=True)
            )
            (intermediate): ESMIntermediate(
              (dense): Linear(in_features=1280, out_features=5120, bias=True)
            )
            (output): ESMOutput(
              (dense): Linear(in_features=5120, out_features=1280, bias=True)
              (dropout): Dropout(p=0, inplace=False)
            )
            (LayerNorm): LayerNorm((1280,), eps=1e-05, elementwise_affine=True)
          )
          (4): ESMLayer(
            (attention): ESMAttention(
              (self): ESMSelfAttention(
                (query): Linear(in_features=1280, out_features=1280, bias=True)
                (key): Linear(in_features=1280, out_features=1280, bias=True)
                (value): Linear(in_features=1280, out_features=1280, bias=True)
                (dropout): Dropout(p=0.0, inplace=False)
              )
              (output): ESMSelfOutput(
                (dense): Linear(in_features=1280, out_features=1280, bias=True)
                (dropout): Dropout(p=0, inplace=False)
              )
              (LayerNorm): LayerNorm((1280,), eps=1e-05, elementwise_affine=True)
            )
            (intermediate): ESMIntermediate(
              (dense): Linear(in_features=1280, out_features=5120, bias=True)
            )
            (output): ESMOutput(
              (dense): Linear(in_features=5120, out_features=1280, bias=True)
              (dropout): Dropout(p=0, inplace=False)
            )
            (LayerNorm): LayerNorm((1280,), eps=1e-05, elementwise_affine=True)
          )
          (5): ESMLayer(
            (attention): ESMAttention(
              (self): ESMSelfAttention(
                (query): Linear(in_features=1280, out_features=1280, bias=True)
                (key): Linear(in_features=1280, out_features=1280, bias=True)
                (value): Linear(in_features=1280, out_features=1280, bias=True)
                (dropout): Dropout(p=0.0, inplace=False)
              )
              (output): ESMSelfOutput(
                (dense): Linear(in_features=1280, out_features=1280, bias=True)
                (dropout): Dropout(p=0, inplace=False)
              )
              (LayerNorm): LayerNorm((1280,), eps=1e-05, elementwise_affine=True)
            )
            (intermediate): ESMIntermediate(
              (dense): Linear(in_features=1280, out_features=5120, bias=True)
            )
            (output): ESMOutput(
              (dense): Linear(in_features=5120, out_features=1280, bias=True)
              (dropout): Dropout(p=0, inplace=False)
            )
            (LayerNorm): LayerNorm((1280,), eps=1e-05, elementwise_affine=True)
          )
          (6): ESMLayer(
            (attention): ESMAttention(
              (self): ESMSelfAttention(
                (query): Linear(in_features=1280, out_features=1280, bias=True)
                (key): Linear(in_features=1280, out_features=1280, bias=True)
                (value): Linear(in_features=1280, out_features=1280, bias=True)
                (dropout): Dropout(p=0.0, inplace=False)
              )
              (output): ESMSelfOutput(
                (dense): Linear(in_features=1280, out_features=1280, bias=True)
                (dropout): Dropout(p=0, inplace=False)
              )
              (LayerNorm): LayerNorm((1280,), eps=1e-05, elementwise_affine=True)
            )
            (intermediate): ESMIntermediate(
              (dense): Linear(in_features=1280, out_features=5120, bias=True)
            )
            (output): ESMOutput(
              (dense): Linear(in_features=5120, out_features=1280, bias=True)
              (dropout): Dropout(p=0, inplace=False)
            )
            (LayerNorm): LayerNorm((1280,), eps=1e-05, elementwise_affine=True)
          )
          (7): ESMLayer(
            (attention): ESMAttention(
              (self): ESMSelfAttention(
                (query): Linear(in_features=1280, out_features=1280, bias=True)
                (key): Linear(in_features=1280, out_features=1280, bias=True)
                (value): Linear(in_features=1280, out_features=1280, bias=True)
                (dropout): Dropout(p=0.0, inplace=False)
              )
              (output): ESMSelfOutput(
                (dense): Linear(in_features=1280, out_features=1280, bias=True)
                (dropout): Dropout(p=0, inplace=False)
              )
              (LayerNorm): LayerNorm((1280,), eps=1e-05, elementwise_affine=True)
            )
            (intermediate): ESMIntermediate(
              (dense): Linear(in_features=1280, out_features=5120, bias=True)
            )
            (output): ESMOutput(
              (dense): Linear(in_features=5120, out_features=1280, bias=True)
              (dropout): Dropout(p=0, inplace=False)
            )
            (LayerNorm): LayerNorm((1280,), eps=1e-05, elementwise_affine=True)
          )
          (8): ESMLayer(
            (attention): ESMAttention(
              (self): ESMSelfAttention(
                (query): Linear(in_features=1280, out_features=1280, bias=True)
                (key): Linear(in_features=1280, out_features=1280, bias=True)
                (value): Linear(in_features=1280, out_features=1280, bias=True)
                (dropout): Dropout(p=0.0, inplace=False)
              )
              (output): ESMSelfOutput(
                (dense): Linear(in_features=1280, out_features=1280, bias=True)
                (dropout): Dropout(p=0, inplace=False)
              )
              (LayerNorm): LayerNorm((1280,), eps=1e-05, elementwise_affine=True)
            )
            (intermediate): ESMIntermediate(
              (dense): Linear(in_features=1280, out_features=5120, bias=True)
            )
            (output): ESMOutput(
              (dense): Linear(in_features=5120, out_features=1280, bias=True)
              (dropout): Dropout(p=0, inplace=False)
            )
            (LayerNorm): LayerNorm((1280,), eps=1e-05, elementwise_affine=True)
          )
          (9): ESMLayer(
            (attention): ESMAttention(
              (self): ESMSelfAttention(
                (query): Linear(in_features=1280, out_features=1280, bias=True)
                (key): Linear(in_features=1280, out_features=1280, bias=True)
                (value): Linear(in_features=1280, out_features=1280, bias=True)
                (dropout): Dropout(p=0.0, inplace=False)
              )
              (output): ESMSelfOutput(
                (dense): Linear(in_features=1280, out_features=1280, bias=True)
                (dropout): Dropout(p=0, inplace=False)
              )
              (LayerNorm): LayerNorm((1280,), eps=1e-05, elementwise_affine=True)
            )
            (intermediate): ESMIntermediate(
              (dense): Linear(in_features=1280, out_features=5120, bias=True)
            )
            (output): ESMOutput(
              (dense): Linear(in_features=5120, out_features=1280, bias=True)
              (dropout): Dropout(p=0, inplace=False)
            )
            (LayerNorm): LayerNorm((1280,), eps=1e-05, elementwise_affine=True)
          )
          (10): ESMLayer(
            (attention): ESMAttention(
              (self): ESMSelfAttention(
                (query): Linear(in_features=1280, out_features=1280, bias=True)
                (key): Linear(in_features=1280, out_features=1280, bias=True)
                (value): Linear(in_features=1280, out_features=1280, bias=True)
                (dropout): Dropout(p=0.0, inplace=False)
              )
              (output): ESMSelfOutput(
                (dense): Linear(in_features=1280, out_features=1280, bias=True)
                (dropout): Dropout(p=0, inplace=False)
              )
              (LayerNorm): LayerNorm((1280,), eps=1e-05, elementwise_affine=True)
            )
            (intermediate): ESMIntermediate(
              (dense): Linear(in_features=1280, out_features=5120, bias=True)
            )
            (output): ESMOutput(
              (dense): Linear(in_features=5120, out_features=1280, bias=True)
              (dropout): Dropout(p=0, inplace=False)
            )
            (LayerNorm): LayerNorm((1280,), eps=1e-05, elementwise_affine=True)
          )
          (11): ESMLayer(
            (attention): ESMAttention(
              (self): ESMSelfAttention(
                (query): Linear(in_features=1280, out_features=1280, bias=True)
                (key): Linear(in_features=1280, out_features=1280, bias=True)
                (value): Linear(in_features=1280, out_features=1280, bias=True)
                (dropout): Dropout(p=0.0, inplace=False)
              )
              (output): ESMSelfOutput(
                (dense): Linear(in_features=1280, out_features=1280, bias=True)
                (dropout): Dropout(p=0, inplace=False)
              )
              (LayerNorm): LayerNorm((1280,), eps=1e-05, elementwise_affine=True)
            )
            (intermediate): ESMIntermediate(
              (dense): Linear(in_features=1280, out_features=5120, bias=True)
            )
            (output): ESMOutput(
              (dense): Linear(in_features=5120, out_features=1280, bias=True)
              (dropout): Dropout(p=0, inplace=False)
            )
            (LayerNorm): LayerNorm((1280,), eps=1e-05, elementwise_affine=True)
          )
          (12): ESMLayer(
            (attention): ESMAttention(
              (self): ESMSelfAttention(
                (query): Linear(in_features=1280, out_features=1280, bias=True)
                (key): Linear(in_features=1280, out_features=1280, bias=True)
                (value): Linear(in_features=1280, out_features=1280, bias=True)
                (dropout): Dropout(p=0.0, inplace=False)
              )
              (output): ESMSelfOutput(
                (dense): Linear(in_features=1280, out_features=1280, bias=True)
                (dropout): Dropout(p=0, inplace=False)
              )
              (LayerNorm): LayerNorm((1280,), eps=1e-05, elementwise_affine=True)
            )
            (intermediate): ESMIntermediate(
              (dense): Linear(in_features=1280, out_features=5120, bias=True)
            )
            (output): ESMOutput(
              (dense): Linear(in_features=5120, out_features=1280, bias=True)
              (dropout): Dropout(p=0, inplace=False)
            )
            (LayerNorm): LayerNorm((1280,), eps=1e-05, elementwise_affine=True)
          )
          (13): ESMLayer(
            (attention): ESMAttention(
              (self): ESMSelfAttention(
                (query): Linear(in_features=1280, out_features=1280, bias=True)
                (key): Linear(in_features=1280, out_features=1280, bias=True)
                (value): Linear(in_features=1280, out_features=1280, bias=True)
                (dropout): Dropout(p=0.0, inplace=False)
              )
              (output): ESMSelfOutput(
                (dense): Linear(in_features=1280, out_features=1280, bias=True)
                (dropout): Dropout(p=0, inplace=False)
              )
              (LayerNorm): LayerNorm((1280,), eps=1e-05, elementwise_affine=True)
            )
            (intermediate): ESMIntermediate(
              (dense): Linear(in_features=1280, out_features=5120, bias=True)
            )
            (output): ESMOutput(
              (dense): Linear(in_features=5120, out_features=1280, bias=True)
              (dropout): Dropout(p=0, inplace=False)
            )
            (LayerNorm): LayerNorm((1280,), eps=1e-05, elementwise_affine=True)
          )
          (14): ESMLayer(
            (attention): ESMAttention(
              (self): ESMSelfAttention(
                (query): Linear(in_features=1280, out_features=1280, bias=True)
                (key): Linear(in_features=1280, out_features=1280, bias=True)
                (value): Linear(in_features=1280, out_features=1280, bias=True)
                (dropout): Dropout(p=0.0, inplace=False)
              )
              (output): ESMSelfOutput(
                (dense): Linear(in_features=1280, out_features=1280, bias=True)
                (dropout): Dropout(p=0, inplace=False)
              )
              (LayerNorm): LayerNorm((1280,), eps=1e-05, elementwise_affine=True)
            )
            (intermediate): ESMIntermediate(
              (dense): Linear(in_features=1280, out_features=5120, bias=True)
            )
            (output): ESMOutput(
              (dense): Linear(in_features=5120, out_features=1280, bias=True)
              (dropout): Dropout(p=0, inplace=False)
            )
            (LayerNorm): LayerNorm((1280,), eps=1e-05, elementwise_affine=True)
          )
          (15): ESMLayer(
            (attention): ESMAttention(
              (self): ESMSelfAttention(
                (query): Linear(in_features=1280, out_features=1280, bias=True)
                (key): Linear(in_features=1280, out_features=1280, bias=True)
                (value): Linear(in_features=1280, out_features=1280, bias=True)
                (dropout): Dropout(p=0.0, inplace=False)
              )
              (output): ESMSelfOutput(
                (dense): Linear(in_features=1280, out_features=1280, bias=True)
                (dropout): Dropout(p=0, inplace=False)
              )
              (LayerNorm): LayerNorm((1280,), eps=1e-05, elementwise_affine=True)
            )
            (intermediate): ESMIntermediate(
              (dense): Linear(in_features=1280, out_features=5120, bias=True)
            )
            (output): ESMOutput(
              (dense): Linear(in_features=5120, out_features=1280, bias=True)
              (dropout): Dropout(p=0, inplace=False)
            )
            (LayerNorm): LayerNorm((1280,), eps=1e-05, elementwise_affine=True)
          )
          (16): ESMLayer(
            (attention): ESMAttention(
              (self): ESMSelfAttention(
                (query): Linear(in_features=1280, out_features=1280, bias=True)
                (key): Linear(in_features=1280, out_features=1280, bias=True)
                (value): Linear(in_features=1280, out_features=1280, bias=True)
                (dropout): Dropout(p=0.0, inplace=False)
              )
              (output): ESMSelfOutput(
                (dense): Linear(in_features=1280, out_features=1280, bias=True)
                (dropout): Dropout(p=0, inplace=False)
              )
              (LayerNorm): LayerNorm((1280,), eps=1e-05, elementwise_affine=True)
            )
            (intermediate): ESMIntermediate(
              (dense): Linear(in_features=1280, out_features=5120, bias=True)
            )
            (output): ESMOutput(
              (dense): Linear(in_features=5120, out_features=1280, bias=True)
              (dropout): Dropout(p=0, inplace=False)
            )
            (LayerNorm): LayerNorm((1280,), eps=1e-05, elementwise_affine=True)
          )
          (17): ESMLayer(
            (attention): ESMAttention(
              (self): ESMSelfAttention(
                (query): Linear(in_features=1280, out_features=1280, bias=True)
                (key): Linear(in_features=1280, out_features=1280, bias=True)
                (value): Linear(in_features=1280, out_features=1280, bias=True)
                (dropout): Dropout(p=0.0, inplace=False)
              )
              (output): ESMSelfOutput(
                (dense): Linear(in_features=1280, out_features=1280, bias=True)
                (dropout): Dropout(p=0, inplace=False)
              )
              (LayerNorm): LayerNorm((1280,), eps=1e-05, elementwise_affine=True)
            )
            (intermediate): ESMIntermediate(
              (dense): Linear(in_features=1280, out_features=5120, bias=True)
            )
            (output): ESMOutput(
              (dense): Linear(in_features=5120, out_features=1280, bias=True)
              (dropout): Dropout(p=0, inplace=False)
            )
            (LayerNorm): LayerNorm((1280,), eps=1e-05, elementwise_affine=True)
          )
          (18): ESMLayer(
            (attention): ESMAttention(
              (self): ESMSelfAttention(
                (query): Linear(in_features=1280, out_features=1280, bias=True)
                (key): Linear(in_features=1280, out_features=1280, bias=True)
                (value): Linear(in_features=1280, out_features=1280, bias=True)
                (dropout): Dropout(p=0.0, inplace=False)
              )
              (output): ESMSelfOutput(
                (dense): Linear(in_features=1280, out_features=1280, bias=True)
                (dropout): Dropout(p=0, inplace=False)
              )
              (LayerNorm): LayerNorm((1280,), eps=1e-05, elementwise_affine=True)
            )
            (intermediate): ESMIntermediate(
              (dense): Linear(in_features=1280, out_features=5120, bias=True)
            )
            (output): ESMOutput(
              (dense): Linear(in_features=5120, out_features=1280, bias=True)
              (dropout): Dropout(p=0, inplace=False)
            )
            (LayerNorm): LayerNorm((1280,), eps=1e-05, elementwise_affine=True)
          )
          (19): ESMLayer(
            (attention): ESMAttention(
              (self): ESMSelfAttention(
                (query): Linear(in_features=1280, out_features=1280, bias=True)
                (key): Linear(in_features=1280, out_features=1280, bias=True)
                (value): Linear(in_features=1280, out_features=1280, bias=True)
                (dropout): Dropout(p=0.0, inplace=False)
              )
              (output): ESMSelfOutput(
                (dense): Linear(in_features=1280, out_features=1280, bias=True)
                (dropout): Dropout(p=0, inplace=False)
              )
              (LayerNorm): LayerNorm((1280,), eps=1e-05, elementwise_affine=True)
            )
            (intermediate): ESMIntermediate(
              (dense): Linear(in_features=1280, out_features=5120, bias=True)
            )
            (output): ESMOutput(
              (dense): Linear(in_features=5120, out_features=1280, bias=True)
              (dropout): Dropout(p=0, inplace=False)
            )
            (LayerNorm): LayerNorm((1280,), eps=1e-05, elementwise_affine=True)
          )
          (20): ESMLayer(
            (attention): ESMAttention(
              (self): ESMSelfAttention(
                (query): Linear(in_features=1280, out_features=1280, bias=True)
                (key): Linear(in_features=1280, out_features=1280, bias=True)
                (value): Linear(in_features=1280, out_features=1280, bias=True)
                (dropout): Dropout(p=0.0, inplace=False)
              )
              (output): ESMSelfOutput(
                (dense): Linear(in_features=1280, out_features=1280, bias=True)
                (dropout): Dropout(p=0, inplace=False)
              )
              (LayerNorm): LayerNorm((1280,), eps=1e-05, elementwise_affine=True)
            )
            (intermediate): ESMIntermediate(
              (dense): Linear(in_features=1280, out_features=5120, bias=True)
            )
            (output): ESMOutput(
              (dense): Linear(in_features=5120, out_features=1280, bias=True)
              (dropout): Dropout(p=0, inplace=False)
            )
            (LayerNorm): LayerNorm((1280,), eps=1e-05, elementwise_affine=True)
          )
          (21): ESMLayer(
            (attention): ESMAttention(
              (self): ESMSelfAttention(
                (query): Linear(in_features=1280, out_features=1280, bias=True)
                (key): Linear(in_features=1280, out_features=1280, bias=True)
                (value): Linear(in_features=1280, out_features=1280, bias=True)
                (dropout): Dropout(p=0.0, inplace=False)
              )
              (output): ESMSelfOutput(
                (dense): Linear(in_features=1280, out_features=1280, bias=True)
                (dropout): Dropout(p=0, inplace=False)
              )
              (LayerNorm): LayerNorm((1280,), eps=1e-05, elementwise_affine=True)
            )
            (intermediate): ESMIntermediate(
              (dense): Linear(in_features=1280, out_features=5120, bias=True)
            )
            (output): ESMOutput(
              (dense): Linear(in_features=5120, out_features=1280, bias=True)
              (dropout): Dropout(p=0, inplace=False)
            )
            (LayerNorm): LayerNorm((1280,), eps=1e-05, elementwise_affine=True)
          )
          (22): ESMLayer(
            (attention): ESMAttention(
              (self): ESMSelfAttention(
                (query): Linear(in_features=1280, out_features=1280, bias=True)
                (key): Linear(in_features=1280, out_features=1280, bias=True)
                (value): Linear(in_features=1280, out_features=1280, bias=True)
                (dropout): Dropout(p=0.0, inplace=False)
              )
              (output): ESMSelfOutput(
                (dense): Linear(in_features=1280, out_features=1280, bias=True)
                (dropout): Dropout(p=0, inplace=False)
              )
              (LayerNorm): LayerNorm((1280,), eps=1e-05, elementwise_affine=True)
            )
            (intermediate): ESMIntermediate(
              (dense): Linear(in_features=1280, out_features=5120, bias=True)
            )
            (output): ESMOutput(
              (dense): Linear(in_features=5120, out_features=1280, bias=True)
              (dropout): Dropout(p=0, inplace=False)
            )
            (LayerNorm): LayerNorm((1280,), eps=1e-05, elementwise_affine=True)
          )
          (23): ESMLayer(
            (attention): ESMAttention(
              (self): ESMSelfAttention(
                (query): Linear(in_features=1280, out_features=1280, bias=True)
                (key): Linear(in_features=1280, out_features=1280, bias=True)
                (value): Linear(in_features=1280, out_features=1280, bias=True)
                (dropout): Dropout(p=0.0, inplace=False)
              )
              (output): ESMSelfOutput(
                (dense): Linear(in_features=1280, out_features=1280, bias=True)
                (dropout): Dropout(p=0, inplace=False)
              )
              (LayerNorm): LayerNorm((1280,), eps=1e-05, elementwise_affine=True)
            )
            (intermediate): ESMIntermediate(
              (dense): Linear(in_features=1280, out_features=5120, bias=True)
            )
            (output): ESMOutput(
              (dense): Linear(in_features=5120, out_features=1280, bias=True)
              (dropout): Dropout(p=0, inplace=False)
            )
            (LayerNorm): LayerNorm((1280,), eps=1e-05, elementwise_affine=True)
          )
          (24): ESMLayer(
            (attention): ESMAttention(
              (self): ESMSelfAttention(
                (query): Linear(in_features=1280, out_features=1280, bias=True)
                (key): Linear(in_features=1280, out_features=1280, bias=True)
                (value): Linear(in_features=1280, out_features=1280, bias=True)
                (dropout): Dropout(p=0.0, inplace=False)
              )
              (output): ESMSelfOutput(
                (dense): Linear(in_features=1280, out_features=1280, bias=True)
                (dropout): Dropout(p=0, inplace=False)
              )
              (LayerNorm): LayerNorm((1280,), eps=1e-05, elementwise_affine=True)
            )
            (intermediate): ESMIntermediate(
              (dense): Linear(in_features=1280, out_features=5120, bias=True)
            )
            (output): ESMOutput(
              (dense): Linear(in_features=5120, out_features=1280, bias=True)
              (dropout): Dropout(p=0, inplace=False)
            )
            (LayerNorm): LayerNorm((1280,), eps=1e-05, elementwise_affine=True)
          )
          (25): ESMLayer(
            (attention): ESMAttention(
              (self): ESMSelfAttention(
                (query): Linear(in_features=1280, out_features=1280, bias=True)
                (key): Linear(in_features=1280, out_features=1280, bias=True)
                (value): Linear(in_features=1280, out_features=1280, bias=True)
                (dropout): Dropout(p=0.0, inplace=False)
              )
              (output): ESMSelfOutput(
                (dense): Linear(in_features=1280, out_features=1280, bias=True)
                (dropout): Dropout(p=0, inplace=False)
              )
              (LayerNorm): LayerNorm((1280,), eps=1e-05, elementwise_affine=True)
            )
            (intermediate): ESMIntermediate(
              (dense): Linear(in_features=1280, out_features=5120, bias=True)
            )
            (output): ESMOutput(
              (dense): Linear(in_features=5120, out_features=1280, bias=True)
              (dropout): Dropout(p=0, inplace=False)
            )
            (LayerNorm): LayerNorm((1280,), eps=1e-05, elementwise_affine=True)
          )
          (26): ESMLayer(
            (attention): ESMAttention(
              (self): ESMSelfAttention(
                (query): Linear(in_features=1280, out_features=1280, bias=True)
                (key): Linear(in_features=1280, out_features=1280, bias=True)
                (value): Linear(in_features=1280, out_features=1280, bias=True)
                (dropout): Dropout(p=0.0, inplace=False)
              )
              (output): ESMSelfOutput(
                (dense): Linear(in_features=1280, out_features=1280, bias=True)
                (dropout): Dropout(p=0, inplace=False)
              )
              (LayerNorm): LayerNorm((1280,), eps=1e-05, elementwise_affine=True)
            )
            (intermediate): ESMIntermediate(
              (dense): Linear(in_features=1280, out_features=5120, bias=True)
            )
            (output): ESMOutput(
              (dense): Linear(in_features=5120, out_features=1280, bias=True)
              (dropout): Dropout(p=0, inplace=False)
            )
            (LayerNorm): LayerNorm((1280,), eps=1e-05, elementwise_affine=True)
          )
          (27): ESMLayer(
            (attention): ESMAttention(
              (self): ESMSelfAttention(
                (query): Linear(in_features=1280, out_features=1280, bias=True)
                (key): Linear(in_features=1280, out_features=1280, bias=True)
                (value): Linear(in_features=1280, out_features=1280, bias=True)
                (dropout): Dropout(p=0.0, inplace=False)
              )
              (output): ESMSelfOutput(
                (dense): Linear(in_features=1280, out_features=1280, bias=True)
                (dropout): Dropout(p=0, inplace=False)
              )
              (LayerNorm): LayerNorm((1280,), eps=1e-05, elementwise_affine=True)
            )
            (intermediate): ESMIntermediate(
              (dense): Linear(in_features=1280, out_features=5120, bias=True)
            )
            (output): ESMOutput(
              (dense): Linear(in_features=5120, out_features=1280, bias=True)
              (dropout): Dropout(p=0, inplace=False)
            )
            (LayerNorm): LayerNorm((1280,), eps=1e-05, elementwise_affine=True)
          )
          (28): ESMLayer(
            (attention): ESMAttention(
              (self): ESMSelfAttention(
                (query): Linear(in_features=1280, out_features=1280, bias=True)
                (key): Linear(in_features=1280, out_features=1280, bias=True)
                (value): Linear(in_features=1280, out_features=1280, bias=True)
                (dropout): Dropout(p=0.0, inplace=False)
              )
              (output): ESMSelfOutput(
                (dense): Linear(in_features=1280, out_features=1280, bias=True)
                (dropout): Dropout(p=0, inplace=False)
              )
              (LayerNorm): LayerNorm((1280,), eps=1e-05, elementwise_affine=True)
            )
            (intermediate): ESMIntermediate(
              (dense): Linear(in_features=1280, out_features=5120, bias=True)
            )
            (output): ESMOutput(
              (dense): Linear(in_features=5120, out_features=1280, bias=True)
              (dropout): Dropout(p=0, inplace=False)
            )
            (LayerNorm): LayerNorm((1280,), eps=1e-05, elementwise_affine=True)
          )
          (29): ESMLayer(
            (attention): ESMAttention(
              (self): ESMSelfAttention(
                (query): Linear(in_features=1280, out_features=1280, bias=True)
                (key): Linear(in_features=1280, out_features=1280, bias=True)
                (value): Linear(in_features=1280, out_features=1280, bias=True)
                (dropout): Dropout(p=0.0, inplace=False)
              )
              (output): ESMSelfOutput(
                (dense): Linear(in_features=1280, out_features=1280, bias=True)
                (dropout): Dropout(p=0, inplace=False)
              )
              (LayerNorm): LayerNorm((1280,), eps=1e-05, elementwise_affine=True)
            )
            (intermediate): ESMIntermediate(
              (dense): Linear(in_features=1280, out_features=5120, bias=True)
            )
            (output): ESMOutput(
              (dense): Linear(in_features=5120, out_features=1280, bias=True)
              (dropout): Dropout(p=0, inplace=False)
            )
            (LayerNorm): LayerNorm((1280,), eps=1e-05, elementwise_affine=True)
          )
          (30): ESMLayer(
            (attention): ESMAttention(
              (self): ESMSelfAttention(
                (query): Linear(in_features=1280, out_features=1280, bias=True)
                (key): Linear(in_features=1280, out_features=1280, bias=True)
                (value): Linear(in_features=1280, out_features=1280, bias=True)
                (dropout): Dropout(p=0.0, inplace=False)
              )
              (output): ESMSelfOutput(
                (dense): Linear(in_features=1280, out_features=1280, bias=True)
                (dropout): Dropout(p=0, inplace=False)
              )
              (LayerNorm): LayerNorm((1280,), eps=1e-05, elementwise_affine=True)
            )
            (intermediate): ESMIntermediate(
              (dense): Linear(in_features=1280, out_features=5120, bias=True)
            )
            (output): ESMOutput(
              (dense): Linear(in_features=5120, out_features=1280, bias=True)
              (dropout): Dropout(p=0, inplace=False)
            )
            (LayerNorm): LayerNorm((1280,), eps=1e-05, elementwise_affine=True)
          )
          (31): ESMLayer(
            (attention): ESMAttention(
              (self): ESMSelfAttention(
                (query): Linear(in_features=1280, out_features=1280, bias=True)
                (key): Linear(in_features=1280, out_features=1280, bias=True)
                (value): Linear(in_features=1280, out_features=1280, bias=True)
                (dropout): Dropout(p=0.0, inplace=False)
              )
              (output): ESMSelfOutput(
                (dense): Linear(in_features=1280, out_features=1280, bias=True)
                (dropout): Dropout(p=0, inplace=False)
              )
              (LayerNorm): LayerNorm((1280,), eps=1e-05, elementwise_affine=True)
            )
            (intermediate): ESMIntermediate(
              (dense): Linear(in_features=1280, out_features=5120, bias=True)
            )
            (output): ESMOutput(
              (dense): Linear(in_features=5120, out_features=1280, bias=True)
              (dropout): Dropout(p=0, inplace=False)
            )
            (LayerNorm): LayerNorm((1280,), eps=1e-05, elementwise_affine=True)
          )
          (32): ESMLayer(
            (attention): ESMAttention(
              (self): ESMSelfAttention(
                (query): Linear(in_features=1280, out_features=1280, bias=True)
                (key): Linear(in_features=1280, out_features=1280, bias=True)
                (value): Linear(in_features=1280, out_features=1280, bias=True)
                (dropout): Dropout(p=0.0, inplace=False)
              )
              (output): ESMSelfOutput(
                (dense): Linear(in_features=1280, out_features=1280, bias=True)
                (dropout): Dropout(p=0, inplace=False)
              )
              (LayerNorm): LayerNorm((1280,), eps=1e-05, elementwise_affine=True)
            )
            (intermediate): ESMIntermediate(
              (dense): Linear(in_features=1280, out_features=5120, bias=True)
            )
            (output): ESMOutput(
              (dense): Linear(in_features=5120, out_features=1280, bias=True)
              (dropout): Dropout(p=0, inplace=False)
            )
            (LayerNorm): LayerNorm((1280,), eps=1e-05, elementwise_affine=True)
          )
        )
        (emb_layer_norm_after): LayerNorm((1280,), eps=1e-05, elementwise_affine=True)
      )
    )
    (lm_head): ESMLMHead(
      (dense): Linear(in_features=1280, out_features=1280, bias=True)
      (layer_norm): LayerNorm((1280,), eps=1e-05, elementwise_affine=True)
      (decoder): Linear(in_features=1280, out_features=33, bias=True)
    )
  )
  (decoder): Sequential(
    (0): Linear(in_features=1280, out_features=640, bias=True)
    (1): ReLU()
    (2): Linear(in_features=640, out_features=320, bias=True)
    (3): ReLU()
    (4): Linear(in_features=320, out_features=1, bias=True)
  )
  (activation): Sigmoid()
)
Trainable parameters: 42024994
Train Epoch: 1 [0/3311465 (0%)] Loss: 0.332089
Train Epoch: 1 [32768/3311465 (1%)] Loss: 0.200919
Train Epoch: 1 [65536/3311465 (2%)] Loss: 0.172632
Train Epoch: 1 [98304/3311465 (3%)] Loss: 0.194367
Train Epoch: 1 [131072/3311465 (4%)] Loss: 0.204003
Train Epoch: 1 [163840/3311465 (5%)] Loss: 0.142134
…
